CNN_weights.npz (torch, 180855 bytes, 10 tensors)

conv1.weight f4 [6, 1, 5, 5]
0.09759067 0.30124208 0.50331455 0.39463523 0.10315614 -0.41293284 -0.4448811 -0.2539859
-0.2990276 -0.2381155 -0.2125601 -0.44772387 -0.62921834 -0.38415968 -0.093524896 0.3188547
-0.2001076 -0.08345614 0.16431157 0.2038859 0.22585 0.515178 0.41269776 0.18096599
-0.058778476 -0.088117085 -0.14312999 -0.31215125 -0.51705664 -0.35618016 -0.14648624 -0.0630437
-0.3117891 -0.18388242 -0.33563894 -0.16945128 -0.29737166 -0.056437343 -0.055946216 0.4368859
-0.22480468 -0.26001123 0.073010944 0.24424192 0.5251222 0.021628939 0.10047052 0.2169504
0.42123726 0.21052392 0.034618795 0.45486462 0.41288674 -0.0061009214 0.08809452 0.12016614
-0.059405606 0.22969751 0.4163444 0.28867394 -0.6032744 -0.2091914 0.2986699 0.15056822
0.17809972 -0.37757868 -0.7442108 -0.75867414 -0.27561557 -0.33314955 -0.036672413 -0.030545969
-0.2662009 -0.42862958 -0.30586705 0.24561232 0.0581547 -0.030211285 0.014461266 -0.10243704
0.22260176 0.10971766 -0.28581077 -0.2797225 -0.20918709 0.2944552 -0.08314234 -0.4563126
-0.54319054 0.23351996 0.07076043 -0.45913184 -0.513143 -0.15065329 0.44803724 -0.3480994
-0.4536184 -0.26559582 -0.24773565 0.450499 -0.21114089 0.19742608 0.4351186 0.40969747
-0.068673275 -0.15086275 -0.22619465 -0.0053983564 0.39530376 0.19272603 -0.39174944 0.01058828
-0.0071805413 0.35453388 0.1456681 -0.3118372 -0.17471495 0.084918536 0.44474187 -0.15068294
0.053564582 -0.038578607 0.030443002 0.2387973 -0.11992502 0.16148667 0.036186557 -0.615756
-0.42126465 0.03914173 -0.15697485 0.24690379 -0.29721603 -0.23878388 -0.00042214143 -0.19883174
0.2900198 0.8269526 0.11699811 0.07397415 0.15574987 0.48558575 0.49123174 0.039915584
-0.11331723 0.17505561 -0.36350724 -0.37975788 -0.020365335 0.08618611
00000000: 9edd c73d 673c 9a3e 39d9 003f a10d ca3e
00000010: 8743 d33d ef6b d3be 75c7 e3be 710a 82be
00000020: 251a 99be 8dd4 73be 5ba9 59be 103c e5be
00000030: 7414 21bf 94b0 c4be fb89 bfbd ec40 a33e
00000040: 02e9 4cbe 0deb aabd 4b41 283e 77c7 503e
00000050: 3945 673e b5e2 033f 1f4d d33e 264f 393e
00000060: b3c1 70bd bb76 b4bd ab90 12be 4ad2 9fbe
00000070: d35d 04bf 3f5d b6be 7d00 16be 0e1d 81bd
00000080: d2a2 9fbe ac4b 3cbe ded8 abbe a384 2dbe
00000090: 1941 98be d82a 67bd dc27 65bd 82af df3e
000000a0: 3333 66be 3120 85be c386 953d 8e1a 7a3e
000000b0: 696e 063f 2c2f b13c 7dc3 cd3d 3f28 5e3e
000000c0: 69ac d73e 9593 573e 70cc 0d3d 04e4 e83e
000000d0: e465 d33e 3dea c7bb e66a b43d aa19 f63d
000000e0: 4b53 73bd d335 6b3e 182b d53e 12cd 933e
000000f0: 3170 1abf 4536 56be 43eb 983e 8e2e 1a3e
00000100: c65f 363e fe51 c1be 9984 3ebf 7838 42bf
00000110: 7c1d 8dbe 9492 aabe d035 16bd 8a3b fabc
00000120: 7c4b 88be 5675 dbbe 9b9a 9cbe cc81 7b3e
00000130: 9f33 6e3d a87d f7bc f2ee 6c3c 83ca d1bd
00000140: b7f1 633e a7b3 e03d ca55 92be ca37 8fbe
00000150: 2435 56be d5c2 963e 8846 aabd cea1 e9be
00000160: 890e 0bbf db1f 6f3e d8ea 903d 5413 ebbe
00000170: 575d 03bf db44 1abe 2365 e53e 163a b2be
00000180: ac40 e8be 2dfc 87be 6aae 7dbe cea7 e63e
00000190: 5135 58be 102a 4a3e ddc7 de3e dec3 d13e
000001a0: 93a4 8cbd c47b 1abe 929f 67be b2e4 b0bb
000001b0: 4165 ca3e f959 453e 6293 c8be 777a 2d3c
000001c0: bf4a ebbb 7785 b53e 052a 153e 20a9 9fbe
000001d0: 7ae8 32be c5e9 ad3d 35b5 e33e a14c 1abe
000001e0: 8966 5b3d 9a04 1ebd 9a63 f93c 4887 743e
000001f0: 409b f5bd c35c 253e 5b38 143d 2fa2 1dbf
00000200: 00b0 d7be 1453 203d 04be 20be 59d4 7c3e
00000210: b32c 98be c383 74be dd52 ddb9 8c9a 4bbe
00000220: 7a7d 943e 2ab3 533f b59c ef3d c27f 973d
00000230: e57c 1f3e b29e f83e ba82 fb3e 867e 233d
00000240: dd12 e8bd c741 333e 9f1d babe a06f c2be
00000250: 34d5 a6bc 5882 b03d

conv1.bias f4 [6]
-0.30278683 -0.46739486 -0.1451797 -0.24991676 -0.5418266 -0.151301
00000000: e006 9bbe 614e efbe fda9 14be 2eea 7fbe
00000010: 26b5 0abf a6ee 1abe

conv2.weight f4 [16, 6, 5, 5]
0.02072745 0.0049153906 -0.030875608 -0.19689395 -0.05341098 0.065336846 -0.07078011 -0.19138806
-0.149018 -0.17029065 0.18255013 -0.11004452 -0.3595063 -0.23872942 0.04276174 0.018982235
-0.15752317 -0.1997013 -0.092025794 -0.107194476 -0.10834797 -0.07147319 -0.042015634 0.017917683
-0.059828635 0.17763771 0.2656064 0.2077597 0.06720196 -0.12231829 -0.1025116 -0.015392374
0.1875109 0.07728364 -0.15834148 0.110802904 0.0309627 0.04255467 -0.13388097 -0.105859935
0.21946363 0.08155687 -0.21817437 -0.24969357 -0.2240079 -0.026559016 -0.31036898 -0.11297679
-0.015129517 -0.21749051 0.114205845 -0.18137753 -0.21255882 -0.069362305 0.04568384 0.22818531
-0.034613468 -0.153675 -0.04383117 0.15920213 -0.009680089 -0.14947453 -0.110537216 0.0050133527
0.2601316 -0.086429074 -0.21320093 -0.09065511 -0.03077329 -0.117346995 -0.36532924 -0.027557516
0.18857716 -0.08250979 -0.017358277 0.20052208 0.041554667 -0.014677859 0.05334944 -0.010203016
0.06923024 -0.067333214 0.021076852 0.1378732 0.035534732 0.046939068 -0.03050865 0.17173916
0.11656372 -0.07311318 0.101290576 0.039002314 0.09769485 -0.05275174 -0.08052372 0.011021762
0.14688598 0.09607063 0.05180042 -0.08038944 -0.42650226 -0.0331561 0.2801634 0.16695322
0.14673612 -0.24914198 0.04289791 0.22446254 0.08867999 -0.28322625 -0.27235124 0.123340435
0.17644781 -0.13692553 -0.5598537 -0.07745274 0.11684327 0.16606224 -0.16151519 -0.44074023
-0.0058004884 0.03297402 -0.017928798 -0.18960041 -0.31358942 -0.19779551 0.10420062 0.06333223
0.032555733 0.0966459 -0.19129406 -0.30975723 -0.2088362 0.14321898 0.06235179 -0.23986879
-0.045821525 -0.049439114 -0.0076578944 -0.16620538 -0.16108784 -0.11902959 -0.1278284 -0.030869622
0.053057227 -0.10548477 -0.083002344 0.11825304 0.04712662 -0.028012987 -0.07911889 -0.101413265
-0.10755129 -0.09933962 -0.06064386 0.0717523 0.16359249 0.0936722 -0.021021929 -0.01078752
0.12470161 0.08738475 0.10868591 0.07838409 -0.023949096 0.07085407 0.11005926 0.00383975
0.06405712 0.13925394 -0.14209981 -0.078670844 -0.111875094 -0.004483188 0.08807797 0.07907421
-0.20057642 -0.08170863 0.068969935 0.086958915 -0.043041263 0.059608772 0.06515168 0.18150555
0.050871283 0.087420344 0.232651 0.2861178 0.08308559 -0.24390866 0.22923453 0.097209215
0.09922354 0.050735038 -0.2054539 0.15907295 -0.035690647 -0.007768258 0.004528844 0.18874818
0.17845692 0.18314895 0.0101728495 -0.22224718 -0.29080197 -0.016184712 -0.009055317 -0.067773946
-0.14015226 -0.042409122 -0.10674089 -0.07338067 -0.06573839 0.043152504 0.16324782 -0.05014389
0.022339506 -0.12946501 -0.12134298 0.012015891 -0.013370572 -0.08981359 -0.031787552 -0.13576923
-0.17149825 0.04299328 0.079661615 0.2007236 0.19292201 0.083463565 -0.03565581 -0.059718788
0.052161153 0.06378903 -0.116228275 -0.055357993 -0.007515952 -0.10000925 -0.012294244 -0.06495062
0.16644304 -0.0061924686 0.08974048 -0.026828982 -0.051488716 -0.03287954 -0.061376944 0.01801241
-0.19104698 -0.057227034 0.2943255 0.28334656 -0.14620814 -0.26649582 -0.06749342 -0.12030213
00000000: 9dcc a93c 4911 a13b d8ee fcbc 919e 49be
00000010: 79c5 5abd 53cf 853d 2af5 90bd 3bfb 43be
00000020: 2d98 18be ac60 2ebe 6cee 3a3e 055f e1bd
00000030: 3611 b8be 7c75 74be ef26 2f3d a280 9b3c
00000040: c14d 21be 7f7e 4cbe 0578 bcbd c788 dbbd
00000050: 8ae5 ddbd 8960 92bd 9618 2cbd 1bc8 923c
00000060: df0e 75bd a9e6 353e 90fd 873e f5be 543e
00000070: 2ea1 893d 0382 fabd 9af1 d1bd 4c30 7cbc
00000080: db02 403e e346 9e3d 4524 22be a2ec e23d
00000090: 7da5 fd3c ce4d 2e3d 1818 09be 18cd d8bd
000000a0: 13bb 603e 4a07 a73d 1a69 5fbe acaf 7fbe
000000b0: 5462 65be 4b92 d9bc afe8 9ebe 6060 e7bd
000000c0: cbe1 77bc d5b5 5ebe c1e4 e93d 08bb 39be
000000d0: 05a9 59be d30d 8ebd fa1e 3b3d 69a9 693e
000000e0: dac6 0dbd fb5c 1dbe 5088 33bd e205 233e
000000f0: 3c99 1ebc da0f 19be 5661 e2bd 0d47 a43b
00000100: f82f 853e ba01 b1bd 5851 5abe 63a9 b9bd
00000110: 4418 fcbc 9f53 f0bd 6f0c bbbe 4dc0 e1bc
00000120: 5f1a 413e e5fa a8bd f232 8ebc a955 4d3e
00000130: 3a35 2a3d 677b 70bc f184 5a3d 8d2a 27bc
00000140: 96c8 8d3d ffe5 89bd 5da9 ac3c a22e 0d3e
00000150: de8c 113d 2e43 403d 47ed f9bc 64dc 2f3e
00000160: f6b8 ee3d 5dbc 95bd 6f71 cf3d e4c0 1f3d
00000170: 3d14 c83d 3512 58bd 9fe9 a4bd 9f94 343c
00000180: 4769 163e aec0 c43d ad2c 543d 38a3 a4bd
00000190: 815e dabe b1ce 07bd 9471 8f3e c9f5 2a3e
000001a0: fe41 163e 131f 7fbe b8b5 2f3d 82d9 653e
000001b0: db9d b53d 0803 91be 9f71 8bbe e999 fc3d
000001c0: bcae 343e 3536 0cbe 9252 0fbf 8b9f 9ebd
000001d0: 864b ef3d 380c 2a3e 3d64 25be b4a8 e1be
000001e0: 0612 bebb c40f 073d 6adf 92bc 9c26 42be
000001f0: cb8e a0be e88a 4abe 2267 d53d 54b4 813d
00000200: 2959 053d 49ee c53d 97e2 43be 8098 9ebe
00000210: 28d9 55be ffa7 123e 9764 7f3d 2aa0 75be
00000220: 5aaf 3bbd ab80 4abd 13ef fabb be31 2abe
00000230: 36f4 24be c9c5 f3bd 73e5 02be 4ae2 fcbc
00000240: 8952 593d 6608 d8bd 22fd a9bd a62e f23d
00000250: d807 413d 7e7b e5bc 1609 a2bd c2b1 cfbd
00000260: da43 dcbd 9272 cbbd b265 78bd dff2 923d
00000270: ca84 273e 36d7 bf3d 2e36 acbc 23be 30bc
00000280: 8f63 ff3d c7f6 b23d b896 de3d d687 a03d
00000290: e530 c4bc f01b 913d c066 e13d 51a4 7b3b
000002a0: 6130 833d 9698 0e3e 9d82 11be 2e1e a1bd
000002b0: c51e e5bd b5e7 92bb 3962 b43d a9f1 a13d
000002c0: e863 4dbe db56 a7bd 1c40 8d3d 8417 b23d
000002d0: 094c 30bd 5428 743d 3e6e 853d 97dc 393e
000002e0: 685e 503d 7009 b33d 103c 6e3e 087e 923e
000002f0: c728 aa3d 31c3 79be 75bc 6a3e a015 c73d
00000300: b635 cb3d 8bcf 4f3d 8262 52be 05e4 223e
00000310: 5b30 12bd df8c febb b266 943b 3447 413e
00000320: 69bd 363e 668b 3b3e 06ac 263c c494 63be
00000330: ffe3 94be cd95 84bc c15c 14bc 11cd 8abd
00000340: 1384 0fbe 30b5 2dbd f89a dabd 9b48 96bd
00000350: d9a1 86bd aec0 303d 702a 273e ae63 4dbd
00000360: 5701 b73c 7a92 04be ab82 f8bd 4dde 443c
00000370: 3e10 5bbc 30f0 b7bd aa33 02bd 1707 0bbe
00000380: 3d9d 2fbe b919 303d a125 a33d 7d8a 4d3e
00000390: 598d 453e f2ee aa3d d40b 12bd b09b 74bd
000003a0: efa6 553d d3a3 823d 1709 eebd 10bf 62bd
000003b0: 6048 f6bb a6d1 ccbd cc6d 49bc d504 85bd
000003c0: 0b70 2a3e 31ea cabb dbc9 b73d 74c8 dbbc
000003d0: d5e5 52bd b2ac 06bd 6466 7bbd c38e 933c
000003e0: d2a1 43be e566 6abd d5b1 963e cd12 913e
000003f0: 96b7 15be 2472 88be fd39 8abd f760 f6bd

conv2.bias f4 [16]
0.105915844 -0.07144413 0.00911163 -0.053649787 -0.080860585 0.038358208 -0.10857938 -0.10015495
-0.074134156 -0.08566197 -0.009958219 0.060173098 0.031496994 -0.010435445 0.008314539 0.0716892
00000000: 68ea d83d 4d51 92bd f248 153c e1bf 5bbd
00000010: 3c9a a5bd 7f1d 1d3d de5e debd 0a1e cdbd
00000020: a6d3 97bd 8b6f afbd cc27 23bc 1178 763d
00000030: fe02 013d 6ef9 2abc b439 083c cad1 923d

fc1.weight f4 [120, 256]
-0.033668466 0.021050047 -0.03687935 -0.07612196 -0.019423157 0.11126142 0.014390478 -0.19703346
-0.09129545 -0.053639855 0.04335411 -0.04869664 -0.14512676 -0.09388447 -0.08475492 0.029151395
-0.17898032 -0.04514527 -0.01774617 0.02681077 0.0023019342 -0.0038227544 0.028833523 0.10236943
-0.036332484 -0.026583033 -0.032796185 -0.057702515 -0.07982759 0.000435526 0.029994695 -0.054780774
0.04190908 -0.008159995 -0.010237158 0.00341641 0.039628383 -0.07085005 0.10303522 -0.043632854
0.040228896 0.06854457 -0.030050175 -0.07977933 -0.06107837 -0.029822936 0.0068229414 -0.03552208
-0.14588241 -0.09022556 -0.07176719 -0.048354756 0.08974919 0.017840402 0.036896396 0.07912823
0.14716995 -0.044719215 0.054087825 0.059150144 0.11293413 0.061296407 0.0779761 0.07502852
-0.02151877 0.0037504279 0.031160697 0.06132413 0.045978248 0.12851515 -0.02967728 -0.057504017
0.023975091 0.03621701 -0.052842338 -0.050367292 0.08270656 -0.10619443 -0.08331778 -0.13668148
0.0015771905 0.029436048 -0.1126373 -0.07616141 -0.0052674264 -0.049941808 -0.038650528 -0.08392199
-0.075389884 -0.10884412 0.08047252 -0.036640517 -0.038180128 0.020894544 -0.048212733 -0.02858848
0.06380003 0.05317143 0.113247566 0.089243256 -0.036011256 -0.12540625 -0.024276854 0.01458041
-0.06741251 -0.103504784 -0.19687423 -0.21157919 -0.08326198 -0.1180621 -0.11882372 -0.14101143
-0.08880921 -0.11178493 -0.10411534 -0.16234383 -0.017839815 -0.11778313 0.022781093 0.007128652
0.017102713 0.065029226 -0.059712444 -0.03373234 0.0013463807 0.05302574 0.018830698 -0.030786164
-0.03883053 0.0037351416 0.18895242 0.12547535 -0.009661416 -0.036220536 0.042487163 0.10955991
0.08295758 -0.08118996 0.05939609 0.10276237 0.101028375 -0.018545577 0.024253711 -0.025612138
-0.16047063 -0.03925077 -0.09646643 0.005010015 -0.024201244 0.057155415 0.032614976 0.12109165
-0.020460851 -0.06653039 -0.038109824 -0.035981383 -0.01892888 0.059874047 -0.005208798 0.03808974
0.0035158815 0.031224327 -0.15404983 -0.23044519 -0.090655915 0.017144797 0.02012254 -0.0142667955
-0.062495064 0.075765856 -0.020335574 -0.11107546 -0.06720395 0.07936156 0.08953982 0.0033593322
0.03466352 0.007988814 -5.1404924e-05 0.031390224 -0.012736507 -0.031996172 0.044216458 -0.03770312
0.04345747 0.029984578 0.06630326 0.0014473783 -0.01644589 0.0053506354 0.0657441 -0.098403126
-0.1152872 -0.007874162 0.030709676 0.088703044 -0.07574129 0.06319345 0.069284275 0.1871157
0.0067970594 0.09038341 -0.03456947 -0.12214244 0.018476464 -0.094628274 -0.057548486 -0.13960396
0.0037825285 0.006747564 0.06551516 0.108060405 0.16448064 -0.073921345 -0.021769885 0.08988587
0.05411851 0.012099018 0.106018096 -0.06388539 -0.05252538 -0.082972266 -0.0497208 -0.12818846
-0.16687211 -0.10803449 0.022932945 0.18781942 0.05317643 0.11162983 0.11163149 0.10999886
0.07836902 0.036552552 -0.03437886 -0.02635692 0.029447453 0.06571648 -0.020053824 -0.07837916
0.03776116 -0.007818723 0.04571345 -0.01861851 0.038752176 -0.018435357 -0.016052399 -0.01960783
-0.0351708 -0.033156957 0.020143222 -0.04955636 0.02082318 -0.014328064 0.062071506 0.042328916
00000000: f2e7 09bd 2671 ac3c cd0e 17bd d5e5 9bbd
00000010: 501d 9fbc 07dd e33d 0ac6 6b3c 24c3 49be
00000020: 1cf9 babd 77b5 5bbd 1494 313d 2176 47bd
00000030: 1c9c 14be 8046 c0bd fd93 adbd e8ce ee3c
00000040: 9e46 37be 3fea 38bd 6a60 91bc 43a2 db3c
00000050: 0cdc 163b 2d87 7abb 4834 ec3c 10a7 d13d
00000060: 5fd1 14bd a9c4 d9bc 4b55 06bd 7959 6cbd
00000070: a67c a3bd 4f57 e439 6fb7 f53c ce61 60bd
00000080: dba8 2b3d 80b1 05bc c1b9 27bc d9e5 5f3b
00000090: 5f51 223d d519 91bd 2104 d33d 5db8 32bd
000000a0: 0ec7 243d 1861 8c3d c92b f6bc 5863 a3bd
000000b0: 502d 7abd 3b4f f4bc fb92 df3b 9a7f 11bd
000000c0: 3362 15be 2ec8 b8bd adfa 92bd a30f 46bd
000000d0: 6cce b73d 0926 923c ad20 173d fb0d a23d
000000e0: b8b3 163e 7f2b 37bd 328b 5d3d 6c47 723d
000000f0: 024a e73d f111 7b3d efb1 9f3d 8da8 993d
00000100: 2248 b0bc bdc9 753b b844 ff3c 032f 7b3d
00000110: b053 3c3d 7a99 033e c41d f3bc 5589 6bbd
00000120: 6967 c43c 4a58 143d 3571 58bd ef4d 4ebd
00000130: 0f62 a93d 777c d9bd 83a2 aabd 3bf6 0bbe
00000140: bbb9 ce3a de23 f13c 62ae e6bd 83fa 9bbd
00000150: 609a acbb c88f 4cbd 0450 1ebd 4bdf abbd
00000160: 0366 9abd aae9 debd c7ce a43d 5e14 16bd
00000170: c462 1cbd 092b ab3c b77a 45bd 6332 eabc
00000180: 97a9 823d 49ca 593d 57ee e73d 2bc5 b63d
00000190: 8a80 13bd 7f6a 00be 41e0 c6bc ace2 6e3c
000001a0: 920f 8abd 51fa d3bd 6699 49be 37a8 58be
000001b0: 4285 aabd 8bca f1bd da59 f3bd 4d65 10be
000001c0: 9ae1 b5bd 7fef e4bd 6c3a d5bd 763d 26be
000001d0: ce24 92bc 4838 f1bd 6a9f ba3c 7897 e93b
000001e0: fd1a 8c3c 0b2e 853d 0995 74bd ec2a 0abd
000001f0: 0a79 b03a 8531 593d d642 9a3c 4433 fcbc
00000200: c30c 1fbd 47c9 743b be7c 413e 9c7c 003e
00000210: ea4a 1ebc fc5b 14bd 0507 2e3d f260 e03d
00000220: aae5 a93d ec46 a6bd 5149 733d 1475 d23d
00000230: f7e7 ce3d e5ec 97bc b8af c63c 8cd0 d1bc
00000240: 6a52 24be 6ac5 20bd 3190 c5bd 0d2b a43b
00000250: b041 c6bc cc1b 6a3d 4897 053d e6fe f73d
00000260: 849d a7bc 1641 88bd 0c19 1cbd 3761 13bd
00000270: bd10 9bbc 7d3e 753d 91ae aabb fd03 1c3d
00000280: b46a 663b 29ca ff3c 3dbf 1dbe d3f9 6bbe
00000290: cfa9 b9bd 3f73 8c3c 06d8 a43c 47bf 69bc
000002a0: d3fa 7fbd 212b 9b3d ca96 a6bc 887b e3bd
000002b0: 39a2 89bd 5088 a23d a760 b73d 3e28 5c3b
000002c0: 56fb 0d3d 84e3 023c 9e9b 57b8 0993 003d
000002d0: c8ac 50bc 6b0e 03bd 511c 353d 966e 1abd
000002e0: 7600 323d 38a2 f53c 01ca 873d f5b5 bd3a
000002f0: 88b9 86bc 6254 af3b d8a4 863d 9487 c9bd
00000300: b21b ecbd a102 01bc dc92 fb3c f1a9 b53d
00000310: 401e 9bbd 916b 813d eae4 8d3d 429b 3f3e
00000320: deb9 de3b f01a b93d b798 0dbd d125 fabd
00000330: f45b 973c 78cc c1bd f6b7 6bbd 57f4 0ebe
00000340: 4ce4 773b ab1a dd3b d02c 863d c64e dd3d
00000350: 9d6d 283e 1364 97bd c256 b2bc 1516 b83d
00000360: 5fab 5d3d f63a 463c 0420 d93d 58d6 82bd
00000370: da24 57bd 5ded a9bd 0aa8 4bbd d643 03be
00000380: 86e0 2abe 3041 ddbd dfdd bb3c bc53 403e
00000390: 87cf 593d 2e9e e43d 0d9f e43d 1547 e13d
000003a0: f07f a03d 21b8 153d d9d0 0cbd 78ea d7bc
000003b0: c93b f13c 5d96 863d eb47 a4bc 4185 a0bd
000003c0: 72ab 1a3d 1a1a 00bc 073e 3b3d d885 98bc
000003d0: 9aba 1e3d bf05 97bc 5280 83bc 9aa0 a0bc
000003e0: 420f 10bd 97cf 07bd 6603 a53c 9cfb 4abd
000003f0: 6095 aa3c 42c0 6abc b13e 7e3d 1661 2d3d

fc1.bias f4 [120]
-0.0361953 0.018229721 0.04378229 -0.0041064476 -0.030004848 -0.05696434 -0.042138524 0.027227597
0.014124482 0.032190334 0.00895217 -0.018097889 -0.028367773 0.011374978 -0.050951157 0.0096807005
-0.029854469 -0.060019914 0.027456718 -0.0332947 -0.033616256 -0.009557095 -0.0017407131 -0.020272207
0.05570944 -0.033977978 0.054038443 0.008815133 -0.035670336 -0.061773926 0.027230563 -0.03399972
-0.019013355 -0.021266405 0.046883475 0.010220756 0.00822488 0.042924568 -0.021162907 0.07482465
-0.0026304014 -0.009296217 -0.080499515 0.029859275 -0.030947726 -0.02600343 -0.048112858 0.037147902
-0.0005583444 -0.043558713 -0.023555659 -0.006803026 -0.0018350227 -0.047016352 0.028412366 0.0016271587
0.03171265 0.006713539 -0.036941525 -0.0625308 -0.047124647 0.037000176 0.04598853 -0.02831229
0.026945677 0.006924341 -0.034900043 0.017377071 -0.019741554 -0.025308201 -0.025398273 0.008019837
0.06758824 0.02759246 -0.053202182 -0.0141940685 -0.009385546 0.04440005 -0.03675449 0.030829089
0.02881064 -0.0036030593 0.012543441 -0.06384259 -0.032203246 -0.039276328 0.026869122 -0.013617612
-0.015479914 0.037340503 -0.009859658 -0.019620674 0.037843745 0.008978757 0.033244193 0.0112242475
-0.05848935 -0.028827965 0.07138607 0.012903515 0.03614333 0.06127584 -0.07034961 -0.017632334
0.031489808 -0.058603037 0.026581058 -0.053846505 0.063124225 -0.01093074 0.0015317337 -0.039918277
0.059203073 -0.07852219 0.031143384 0.016778799 0.009242537 0.012017121 0.0441151 -0.037201565
00000000: 8641 14bd 7f56 953c 0f55 333d 618f 86bb
00000010: bacc f5bc 7153 69bd 7299 2cbd 690c df3c
00000020: 5f6a 673c 03da 033d 1fac 123c 0642 94bc
00000030: 8863 e8bc 1e5e 3a3c 29b2 50bd cd9b 1e3c
00000040: 5c91 f4bc 71d7 75bd e9ec e03c 0660 08bd
00000050: 33b1 09bd 5d95 1cbc a428 e4ba e611 a6bc
00000060: 952f 643d 7e2c 0bbd 6a57 5d3d 596d 103c
00000070: 0f1b 12bd a806 7dbd a112 df3c 4a43 0bbd
00000080: e5c1 9bbc e236 aebc e308 403d f574 273c
00000090: a6c1 063c acd1 2f3d d55d adbc ab3d 993d
000000a0: d062 2cbb 294f 18bc eedc a4bd 709b f43c
000000b0: 1686 fdbc 2505 d5bc fd11 45bd 6628 183d
000000c0: dc5d 12ba 9f6a 32bd ccf7 c0bc ebeb debb
000000d0: 2585 f0ba 3894 40bd 0dc1 e83c 6346 d53a
000000e0: 20e5 013d 3ffd db3b ff4f 17bd 2610 80bd
000000f0: c605 41bd 7f8d 173d 785e 3c3d 2def e7bc
00000100: 2ebd dc3c 95e5 e23b 59f3 0ebd 5c5a 8e3c
00000110: 0ab9 a1bc 2553 cfbc 0a10 d0bc a265 033c
00000120: b46b 8a3d 9509 e23c 88ea 59bd 3d8e 68bc
00000130: d5c5 19bc d4dc 353d e08b 16bd 498d fc3c
00000140: 4b04 ec3c 4e21 6cbb 0183 4d3c e7bf 82bd
00000150: 8de7 03bd 37e0 20bd a21c dc3c 681c 5fbc
00000160: 779f 7dbc 5bf2 183d 678a 21bc 89bb a0bc
00000170: 0b02 1b3d a31b 133c 102b 083d e8e5 373c
00000180: 8792 6fbd a028 ecbc dc32 923d 4469 533c
00000190: 070b 143d 60fc 7a3d 7513 90bd af71 90bc
000001a0: 75fb 003d bd09 70bd 85c0 d93c 278e 5cbd
000001b0: 4647 813d d916 33bc 74c4 c83a 5981 23bd
000001c0: ec7e 723d 3ed0 a0bd 6920 ff3c b173 893c
000001d0: 036e 173c 75e3 443c 09b2 343d ab60 18bd

fc2.weight f4 [84, 120]
-0.15853223 0.055440273 0.0581659 -0.13434054 -0.011447464 0.048375096 -0.022243792 -0.06311116
0.06565325 -0.03520183 -0.13122517 -0.11377271 -0.08159582 -0.043647848 -0.09134047 0.11963618
-0.073614 0.077063024 0.018510878 0.06734332 -0.010720676 -0.05514161 0.02927301 0.026785608
0.051093716 -0.052679718 -0.10759971 -0.065225035 0.07776094 -0.10220049 0.049275775 -0.15216678
-0.040836696 -0.023543693 -0.14351986 0.012803196 -0.06039917 0.0014871496 0.0119169 0.088105336
0.030892393 0.018345436 0.10929972 -0.008947265 0.040127248 -0.029493192 -0.0007684448 0.05076747
-0.13739778 0.0074381344 -0.00048619427 0.046733245 -0.017787552 -0.09700541 0.028973509 0.043511216
-0.021254664 0.08038956 -0.15875661 0.023456605 -0.102771364 -0.12107113 -0.11197612 -0.08870426
0.117379084 -0.11223349 0.1736091 -0.041480888 -0.0042801932 0.06756409 -0.07095401 -0.02747944
0.07658684 0.004709757 -0.016743176 -0.057503264 -0.0794327 0.05098761 -0.03112665 0.091889754
0.05408655 0.007869248 0.024382994 0.040563077 0.013872643 -0.012865456 -0.006903227 0.116963506
0.16895765 -0.00038233143 -0.08775966 0.081300005 0.13112004 -0.009823862 -0.070756674 -0.040867615
-0.041482747 -0.07072345 0.0350957 -0.03292297 0.10752297 -0.019786354 0.027555667 -0.028423345
-0.052517865 0.011678461 0.06410585 -0.07590425 0.08028687 -0.02571125 -0.05807093 0.15222223
-0.030681152 -0.038571555 -0.11320168 -0.016116126 0.015454023 0.102142885 -0.017774936 0.14027059
-0.08642288 -0.12709996 -0.024725456 -0.00994435 -0.0028509893 -0.10634973 0.061244044 0.14040045
-0.008055782 -0.051343054 0.07576558 -0.06060129 -0.0056824223 0.08882851 -0.026082931 -0.108582586
0.041470964 0.040719725 -0.059442792 -0.07598983 0.03613129 0.08817287 0.08759208 0.0064900224
0.06022448 -0.031223616 0.024849253 -0.08690692 -0.0343979 0.1031071 -0.020688979 -0.03966852
-0.090182826 -0.07836077 0.059571307 -0.14631896 -0.087642476 -0.022007754 0.04556569 0.061624233
0.08232652 -0.036482938 -0.08890279 -0.009931766 0.09595801 -0.022067534 0.12802728 0.002544591
-0.045305654 0.04673647 0.006988357 -0.022825846 -0.07658645 0.036243282 -0.008409915 0.018644625
-0.025640668 -0.11904995 0.07970487 -0.088472515 0.17689897 0.06974271 -0.0675326 -0.07587244
-0.046074115 -0.024920586 -0.06282885 0.03434831 0.08245643 -0.08722287 -0.09054953 0.06555318
0.09592112 0.08312371 -0.09441973 -0.12522605 -0.029384004 -0.029580416 0.20648533 -0.08623691
0.07767604 -0.0690866 -0.09762015 -0.13079843 -0.011448616 -0.092167184 0.13479428 -0.06686968
-0.006779319 0.031647995 0.0791983 -0.037228923 -0.12710185 0.0020242862 -0.06466523 0.029337596
0.07012773 0.012923401 0.057633825 -0.08746513 0.05219483 0.04055029 -0.113419935 0.027761927
-0.06222531 -0.02123324 0.025291558 -0.03461406 0.063613534 -0.039109215 -0.07565779 -0.14695069
-0.05529589 0.1314208 0.009724304 0.048270836 -0.024181785 -0.09051946 0.03178299 0.062111508
-0.07767386 -0.004429195 -0.008153589 -0.10956544 0.10125007 0.05712779 -0.0986644 -0.022829626
0.022391701 -0.018950276 -0.016991531 0.027320772 -0.039382778 0.0025289073 0.14594063 0.0047025867
00000000: 4656 22be 5715 633d 5e3f 6e3d 9190 09be
00000010: 258e 3bbc f724 463d 9d38 b6bc 6d40 81bd
00000020: 3675 863d cb2f 10bd e45f 06be ab01 e9bd
00000030: b61b a7bd 16c8 32bd b610 bbbd d003 f53d
00000040: f0c2 96bd 38d3 9d3d 20a4 973c 4beb 893d
00000050: c6a5 2fbc 2bdc 61bd f4cd ef3c 7e6d db3c
00000060: a547 513d b0c6 57bd 3d5d dcbd b494 85bd
00000070: 2141 9f3d 7e4e d1bd 65d5 493d 9cd1 1bbe
00000080: 6144 27bd b4de c0bc dff6 12be 7fc4 513c
00000090: 1f65 77bd 76ec c23a 1a3f 433c 9270 b43d
000000a0: 0b12 fd3c 2b49 963c 88d8 df3d 8d97 12bc
000000b0: 785c 243d b59b f1bc 7571 49ba 8df1 4f3d
000000c0: 01b2 0cbe 98bb f33b e4e7 feb9 5c6b 3f3d
000000d0: 33b7 91bc c6aa c6bd da59 ed3c d138 323d
000000e0: 431e aebc 48a3 a43d 1891 22be 1128 c03c
000000f0: cb79 d2bd 24f4 f7bd bc53 e5bd 94aa b5bd
00000100: 7264 f03d acda e5bd 95c6 313e dde7 29bd
00000110: dd40 8cbb 0b5f 8a3d 5650 91bd 901c e1bc
00000120: 90d9 9c3d 4e54 9a3b fc28 89bc 8b88 6bbd
00000130: 9dad a2bd 62d8 503d 51fd febc b230 bc3d
00000140: dc89 5d3d 05ee 003c d8be c73c 7825 263d
00000150: 154a 633c a2c9 52bc 7734 e2bb 908a ef3d
00000160: 3c03 2d3e a873 c8b9 56bb b3bd 9e80 a63d
00000170: 5544 063e 44f4 20bc e0e8 90bd cd64 27bd
00000180: d0e9 29bd 75d7 90bd 82c0 0f3d 3cda 06bd
00000190: 0135 dc3d fe16 a2bc 6cbc e13c 13d8 e8bc
000001a0: f91c 57bd 0457 3f3c ee49 833d b073 9bbd
000001b0: 716d a43d 66a0 d2bc c9db 6dbd 25e0 1b3e
000001c0: 0a57 fbbc 35fd 1dbd 48d6 e7bd f705 84bc
000001d0: df32 7d3c 4a30 d13d be9c 91bc 18a3 0f3e
000001e0: 7bfe b0bd 7e26 02be 0a8d cabc a1ed 22bc
000001f0: aad7 3abb e3cd d9bd 09db 7a3d 23c5 0f3e
00000200: 66fc 03bc 184d 52bd fc2a 9b3d 0f39 78bd
00000210: 9d33 babb b9eb b53d dfab d5bc 8c60 debd
00000220: 75dd 293d bac9 263d 497a 73bd 8ea0 9bbd
00000230: 67fe 133d fa93 b43d 7a63 b33d 41aa d43b
00000240: f2ad 763d abc8 ffbc a990 cb3c 41fc b1bd
00000250: d0e4 0cbd d129 d33d ef7b a9bc 757b 22bd
00000260: c6b1 b8bd 9d7b a0bd 0b01 743d a3d4 15be
00000270: e67d b3bd 9b49 b4bc 17a3 3a3d b169 7c3d
00000280: ce9a a83d 226f 15bd aa12 b6bd d9b8 22bc
00000290: a285 c43d f9c6 b4bc 9519 033e 27c3 263b
000002a0: 6c92 39bd be6e 3f3d 96fe e43b 45fd babc
000002b0: 5bd9 9cbd d673 143d bdc9 09bc 9dbc 983c
000002c0: 610c d2bc 76d0 f3bd 4f3c a33d 1431 b5bd
000002d0: 0125 353e 44d5 8e3d 884e 8abd 0363 9bbd
000002e0: 36b8 3cbd 4226 ccbc 69ac 80bd d0b0 0c3d
000002f0: ebde a83d e7a1 b2bd 0872 b9bd bf40 863d
00000300: 4b72 c43d c33c aa3d 225f c1bd 423b 00be
00000310: b9b6 f0bc a152 f2bc e470 533e fa9c b0bd
00000320: 9e14 9f3d 467d 8dbd 13ed c7bd 06f0 05be
00000330: fa92 3bbc 26c2 bcbd 8307 0a3e f9f2 88bd
00000340: 0d25 debb 54a1 013d b832 a23d 5b7d 18bd
00000350: fd26 02be e3a9 043b 346f 84bd 6655 f03c
00000360: 219f 8f3d acbc 533c 7211 6c3d eb20 b3bd
00000370: 3fca 553d 1018 263d b648 e8bd fb6c e33c
00000380: f7df 7ebd 55f1 adbc 3e30 cf3c 79c7 0dbd
00000390: d047 823d fc30 20bd 79f2 9abd 3e7a 16be
000003a0: f17d 62bd 2d93 063e b052 1f3c a4b7 453d
000003b0: e118 c6bc 4462 b9bd e12e 023d a368 7e3d
000003c0: 7913 9fbd c822 91bb a296 05bc d863 e0bd
000003d0: 325c cf3d d4fe 693d 9010 cabd 3205 bbbc
000003e0: cd6e b73c 9c3d 9bbc d331 8bbc d0cf df3c
000003f0: d64f 21bd 06bc 253b 7671 153e 2818 9a3b

fc2.bias f4 [84]
0.13586472 0.094536066 -0.016926734 0.022508338 0.16494408 0.013443886 0.03873471 0.12975699
0.20171584 0.12498485 0.09556348 0.10823376 0.08326624 -0.06249071 0.08507204 -0.01076888
0.028417699 0.03229278 0.104171574 -0.023737429 0.01980295 0.060597036 0.05996967 0.056350842
0.08478076 0.026596824 0.082825795 -0.0035282285 0.18169324 -0.018934784 0.026362427 0.08905934
0.03166785 -0.024480248 0.07726607 0.22327152 0.19605234 0.19887865 0.11870909 0.034955688
0.018549584 0.11835413 0.057495933 0.05626382 0.06954161 0.15757124 0.06752669 0.14355145
0.15193927 0.09148036 0.10546056 0.076556474 0.048423562 0.09260261 0.09083806 0.065765336
0.05533174 -0.018333636 -0.018583247 0.050368845 0.20348309 0.04045408 -0.09573122 0.00134087
-0.016544914 0.06817924 0.026859323 0.14862305 -0.057067353 0.06365391 -0.017750965 0.08864051
0.07864414 0.07407285 0.12310718 -0.012210622 0.09898859 0.1092729 0.05955192 -0.03837129
-0.009876784 0.004269041 -0.035455957 0.029691672
00000000: 1f20 0b3e 209c c13d efa9 8abc 6863 b83c
00000010: 1ae7 283e bf43 5c3c 4aa8 1e3d 04df 043e
00000020: 998e 4e3e 0ff8 ff3d c9b6 c33d a9a9 dd3d
00000030: 7e87 aa3d 42f6 7fbd 403a ae3d f56f 30bc
00000040: 3ccc e83c 6f45 043d e857 d53d ff74 c2bc
00000050: cc39 a23c 9934 783d c2a2 753d 24d0 663d
00000060: 89a1 ad3d 95e1 d93c 92a0 a93d da39 67bb
00000070: cb0d 3a3e 1f1d 9bbc 04f6 d73c be64 b63d
00000080: 26b6 013d cd8a c8bc ac3d 9e3d 4aa1 643e
00000090: f2c1 483e d8a6 4b3e c01d f33d b22d 0f3d
000000a0: 4cf5 973c a663 f23d db80 6b3d e474 663d
000000b0: d56b 8e3d 5b5a 213e 6f4b 8a3d 27ff 123e
000000c0: f895 1b3e 0e5a bb3d b5fb d73d a4c9 9c3d
000000d0: c957 463d 70a6 bd3d 4e09 ba3d faaf 863d
000000e0: 89a3 623d 6c30 96bc e53b 98bc 904f 4e3d
000000f0: df5d 503e 2db3 253d bb0e c4bd 22c0 af3a
00000100: 3389 87bc 8fa1 8b3d 1508 dc3c a430 183e
00000110: 75bf 69bd fb5c 823d 796a 91bc 2889 b53d
00000120: 2e10 a13d 82b3 973d 9e1f fc3d 100f 48bc
00000130: 88ba ca3d 78ca df3d b7ec 733d 372b 1dbd
00000140: 3cd2 21bc 50e3 8b3b 443a 11bd f33b f33c

fc3.weight f4 [10, 84]
-0.099163555 -0.069523215 -0.080476746 -0.0657702 -0.23694208 -0.08932966 -0.13600208 -0.33135188
0.0534656 -0.19022419 -0.07977954 -0.116821885 0.12671243 -0.06766998 -0.019096835 0.20005389
0.082031935 0.25972313 0.19683596 0.18515313 0.21063283 -0.08318135 -0.108243726 0.06372562
0.104073994 -0.11040304 -0.09250842 -0.07449029 -0.16059749 0.20247436 -0.16022117 -0.13716504
-0.012388027 -0.057218995 0.16654822 0.16145921 0.014154059 -0.12098532 0.16137938 0.17888324
0.15034282 -0.27337435 -0.033555467 -0.101166025 -0.12602623 0.21460524 0.21752651 -0.16359939
-0.17770444 -0.18000813 -0.29860786 -0.18435709 -0.056656815 0.18788934 -0.23426768 0.16644534
-0.2641133 0.13920993 -0.23754966 -0.06678836 -0.25511533 -0.17672226 -0.0567645 -0.14910826
-0.17289741 0.16511397 0.20959786 -0.12262476 -0.04839845 0.17513593 -0.055105288 0.19546497
0.19304301 0.19258636 0.22928384 0.20750238 0.21757083 -0.27213892 -0.030396363 -0.10532658
0.16720793 -0.03887054 -0.023543611 -0.106677026 -0.04566129 0.22552818 -0.054210544 0.21728468
-0.24310204 0.25012937 0.2292938 -0.17859668 0.08151242 -0.19215064 -0.06233751 -0.15453751
0.15908666 0.18201502 -0.19268951 -0.2654294 -0.1622244 -0.14458106 0.09570647 -0.115305975
-0.28413644 -0.048879523 0.19000752 -0.0056014606 0.1545399 -0.2734276 -0.01661108 -0.0903859
0.18275958 -0.040228885 0.2632177 0.19042951 -0.06297747 -0.05123559 -0.09495701 0.18966499
0.22754432 -0.22569938 0.15013747 0.18713665 -0.09620018 0.018619029 0.047643233 -0.24540317
-0.07034665 -0.24629448 -0.15021987 -0.14974242 0.2352887 0.17345473 0.25634366 -0.12319
0.22785796 -0.1087241 0.038370293 -0.20229164 0.21642502 -0.067745335 0.10916309 -0.16784592
0.18619883 -0.16571271 -0.11719291 -0.11226073 -0.08337804 0.008625818 -0.1262731 0.2927277
-0.090964675 -0.17007859 -0.040337693 -0.06853881 -0.16484347 0.15433182 -0.16049032 0.112367615
-0.080737345 -0.19896345 0.093210325 -0.091765486 0.19853929 -0.12434547 -0.134213 -0.110922694
0.2236667 -0.108324766 0.21433744 0.11424862 -0.24484615 -0.1971198 0.26855794 -0.25937384
-0.20484059 -0.10731115 0.25688156 0.23713474 0.08912537 -0.15095218 0.15925933 0.16394742
-0.16649783 -0.09800324 0.12541163 -0.24819666 -0.27057782 0.1704 -0.012219172 0.15167733
0.07735925 -0.24902263 0.13935499 -0.036339916 -0.20402256 -0.22093417 0.042801823 0.16092347
0.15170546 0.09412817 -0.047762867 0.13700071 -0.18433802 -0.24522458 0.14210373 0.14533323
0.098424 0.253222 0.1569404 -0.2382646 -0.15376714 -0.04093093 0.12713724 -0.20852518
-0.24596493 0.15612182 0.22847845 0.18330427 0.06834048 -0.026751935 -0.24043664 -0.0075508025
0.17334941 0.056708798 0.13439058 0.13539843 0.21343635 -0.12834282 0.00932505 -0.051243383
-0.18515459 0.116941236 -0.13326679 -0.10141732 -0.06279283 -0.15236725 -0.07222129 0.15173005
0.12216973 -0.15101947 0.08870065 0.22877361 -0.20064946 0.17844477 0.017274907 -0.2094878
0.11376656 -0.11899764 0.15027553 0.12232935 0.15572636 -0.13989496 0.10916553 -0.21087061
00000000: 4316 cbbd 3062 8ebd fed0 a4bd 87b2 86bd
00000010: f2a0 72be 78f2 b6bd 2144 0bbe f4a6 a9be
00000020: bffe 5a3d 21ca 42be 7563 a3bd 5040 efbd
00000030: e7c0 013e 8f96 8abd f770 9cbc edda 4c3e
00000040: 5c00 a83d 6efa 843e 5e8f 493e c898 3d3e
00000050: 22b0 573e fc5a aabd e3ae ddbd 9482 823d
00000060: bf24 d53d fd1a e2bd 0e75 bdbd 5d8e 98bd
00000070: ab73 24be 7055 4f3e 0511 24be fe74 0cbe
00000080: 27f7 4abc 775e 6abd 9e8b 2a3e 9055 253e
00000090: 6de6 673c 27c7 f7bd a340 253e 2b2d 373e
000000a0: 78f3 193e b9f7 8bbe 7571 09bd 2230 cfbd
000000b0: 050d 01be 7ac1 5b3e 45bf 5e3e 9986 27be
000000c0: 27f8 35be 0d54 38be 21e3 98be 1bc8 3cbe
000000d0: fa10 68bd 1066 403e dee3 6fbe a670 2a3e
000000e0: dc39 87be 0c8d 0e3e 3840 73be 56c8 88bd
000000f0: 7a9e 82be aef6 34be e481 68bd d6af 18be
00000100: 050c 31be a313 293e d2a0 563e b122 fbbd
00000110: 743d 46bd d556 333e 15b6 61bd f827 483e
00000120: 11ad 453e 5c35 453e 62c9 6a3e 817b 543e
00000130: e3ca 5e3e cb55 8bbe cb01 f9bc 76b5 d7bd
00000140: 8e38 2b3e b736 1fbd 88de c0bc 7c79 dabd
00000150: 5507 3bbd dcf0 663e e00b 5ebd e07f 5e3e
00000160: beef 78be f510 803e fecb 6a3e 0ce2 36be
00000170: fcef a63d 23c3 44be 9e55 7fbd 153f 1ebe
00000180: 9de7 223e 2562 3a3e 6650 45be 5de6 87be
00000190: 271e 26be 0f0d 14be c101 c43d 8a25 ecbd
000001a0: 557a 91be e535 48bd 5591 423e 758c b7bb
000001b0: b53f 1e3e b4fe 8bbe f613 88bc 3e1c b9bd
000001c0: 5425 3b3e 0bc7 24bd 78c4 863e f4ff 423e
000001d0: 55fa 80bd 69dc 51bd d278 c2bd 8a37 423e
000001e0: 6101 693e bd1d 67be a3bd 193e c0a0 3f3e
000001f0: 9a04 c5bd ef86 983c 8d25 433d f84a 7bbe
00000200: e811 90bd 9f34 7cbe 3dd3 19be 1456 19be
00000210: 85ef 703e 1e9e 313e 7a3f 833e 0a4b fcbd
00000220: 9953 693e beaa debd 2b2a 1d3d 8a25 4fbe
00000230: 859e 5d3e 11be 8abd e690 df3d cddf 2bbe
00000240: e8aa 3e3e 98b0 29be d602 f0bd f4e8 e5bd
00000250: 1bc2 aabd 4e53 0d3c bc4d 01be 68e0 953e
00000260: b04b babd 1529 2ebe 2339 25bd 135e 8cbd
00000270: bacc 28be 2909 1e3e 9357 24be fe20 e63d
00000280: 9f59 a5bd 13bd 4bbe 0ee5 be3d 8bef bbbd
00000290: e24d 4b3e d6a8 febd 226f 09be 702b e3bd
000002a0: e208 653e 60d9 ddbd 467b 5b3e 2efb e93d
000002b0: f3b8 7abe c6d9 49be 6d80 893e a6cc 84be
000002c0: bbc1 51be f3c5 dbbd fb85 833e 73d3 723e
000002d0: 5d87 b63d 3593 1abe e114 233e d5e1 273e
000002e0: 687e 2abe ecb5 c8bd e86b 003e 4427 7ebe
000002f0: 2d89 8abe 567d 2e3e ec32 48bc 4d51 1b3e
00000300: 876e 9e3d caff 7ebe 13b3 0e3e 2ad9 14bd
00000310: 4aeb 50be 913c 62be f750 2f3d 1fc9 243e
00000320: ad58 1b3e 45c6 c03d ffa2 43bd ea49 0c3e
00000330: 1bc3 3cbe 271c 7bbe a483 113e 3cd2 143e
00000340: 8692 c93d 50a6 813e fcb4 203e a3fb 73be
00000350: 2275 1dbe 31a7 27bd 4430 023e a087 55be
00000360: 3bde 7bbe 66de 1f3e 41f6 693e 1db4 3b3e
00000370: 18f6 8b3d e026 dbbc 0635 76be b96c f7bb
00000380: 8282 313e 7c47 683d af9d 093e e3a5 0a3e
00000390: 0f8f 5a3e 4d6c 03be 18c8 183c 95e4 51bd
000003a0: 2a99 3dbe e37e ef3d 1777 08be e2b3 cfbd
000003b0: 8799 80bd 2906 1cbe c1e8 93bd 1f5f 1b3e
000003c0: 2034 fa3d d9a4 1abe b0a8 b53d a143 6a3e
000003d0: 0d77 4dbe 3aba 363e 1b84 8d3c f883 56be
000003e0: 71fe e83d 09b5 f3bd d4e1 193e cf87 fa3d
000003f0: bb76 1f3e a040 0fbe 2d92 df3d 77ee 57be

fc3.bias f4 [10]
0.08483587 0.23590797 -0.1709855 -0.008224894 -0.12763485 0.03736075 -0.29105094 -0.12292224
0.45037645 0.18364236
00000000: 6ebe ad3d dc91 713e d316 2fbe b5c1 06bc
00000010: b6b2 02be 9607 193d a104 95be a8be fbbd
00000020: be97 e63e be0c 3c3e
