MLP_weights.npz (npz, 408086 bytes, 4 tensors)

W1 f8 [64, 784]
0	0x3f7bf9a4f0b7fb02	0.006829876230311839
1	0x3f20531237ac84cb	0.0001245460260515307
2	0xbf3298d0b4667af5	-0.00028376670197786887
3	0x3f60fcf7b376f5e0	0.00207374934299652
4	0x3f57033cfa7adfde	0.0014045806400826348
5	0xbf6a0481855b8840	-0.0031759767251609283
6	0xbf61f1bd5e09eb40	-0.002190465791782087
7	0xbf5fde9fae62e136	-0.0019451674830133887
8	0xbf6626af6a7b3971	-0.002703993424666589
9	0x3f70b959b27abdc0	0.00408301389658966
10	0x3f6c214afefb88a4	0.0034338440672039994
11	0x3f256c109eed95d8	0.00016343787089138809
12	0x3f630c132e2d9dad	0.0023250937096468056
13	0x3f64a401f20ef2d9	0.00251961116779707
14	0x3f766d95277f7fca	0.005475599893514935
15	0xbf634aa7b4fd9469	-0.0023549342658264927
16	0xbf73d9ab3f74617f	-0.004846257149687338
17	0xbf533757ad3718fa	-0.0011728626458178946
18	0xbf6525cbb8e4def2	-0.002581498999599912
19	0x3f637fee3d7bce19	0.00238033801348948
20	0x3f6a6bba8ad46b8d	0.003225197163044985
21	0xbf717505f13b7465	-0.0042619926568622
22	0xbf6c202224f527b7	-0.003433291137899776
23	0xbf72b62ae54838eb	-0.004568259774272425
24	0x3f7e47f78f3639f9	0.007392851857174859
25	0xbf640d8d095390b3	-0.0024478678338813674
26	0x3f7090a9b03eb062	0.004044211240323477
27	0xbf7306d54db6c80d	-0.004645188538619405
28	0x3f41aa1afc5544bf	0.0005390769735333019
29	0x3f5bdb248ebd2567	0.0017001969344668467
30	0xbf28b166d1454300	-0.00018839244934067828
31	0x3f48c7177c2be650	0.0007561554596968254
32	0x3f5c5233b4158f6d	0.0017285828510802085
33	0xbf577990d7a05022	-0.0014327921367156622
34	0x3f7a4d68fdbfbf1d	0.006421480295088403
35	0xbf6ddc226d6d65ae	-0.0036450073634283963
36	0xbf83df500f85cede	-0.009703278993334615
37	0xbf76841ec9a65a0c	-0.005497093452865542
38	0x3f62a37a38d0094a	0.002275217737861689
39	0x3f69894f393f3084	0.0031172320686661554
40	0x3f6ac2a558db66d3	0.0032666425166610696
41	0x3f5ba04270eba630	0.0016861580694985771
42	0x3f54d3b1715ef55d	0.0012711747017271826
43	0xbf445b1849af71f0	-0.0006212109177528551
44	0xbf7c8b43ec1279e8	-0.00696875125973271
45	0x3f612aeb5fad95a9	0.0020956608909041452
46	0x3f61d462426876c6	0.002176467812445934
47	0x3f4f31ad0aa8ae1e	0.0009519667558541311
48	0x3f6a1309f99ab23a	0.0031829066109223788
49	0x3f68695d8016db87	0.0029799295595824313
50	0xbf5fb366921592fe	-0.001934862295763284
51	0x3f21b74b2bff81d1	0.00013516228318534313
52	0xbf67e0f2fe16685d	-0.002914881319793712
53	0xbf7d163a74f082b2	-0.0071012767284918555
54	0x3f6328351478a1ea	0.0023385082929687677
55	0x3f5077797225cd72	0.0010050474162114045
56	0xbf6d0e8bcf8bfdaa	-0.003546975200492593
57	0xbf6b2a342d1c011b	-0.0033160227839063145
58	0x3f76844b69566617	0.005497259689400311
59	0xbf394427f46dbe92	-0.0003855321451089268
60	0xbf6d7b9f4d568447	-0.003598986756245401
61	0xbf76c6a3d011fb07	-0.005560531514787532
62	0x3f641fafc2d28d93	0.0024565155823254663
63	0x3f6ccfa1d882cdc8	0.0035169755029415863
64	0xbf70448290000f86	-0.003971586236733665
65	0xbf4c011ce651c065	-0.0008546248542540379
66	0xbf61748129b1432c	-0.0021307490074281756
67	0xbf723ef61daaacd0	-0.004454575910737904
68	0xbf5c88703853c499	-0.001741513814803397
69	0x3f7b235f4c736da3	0.006625530491159467
70	0x3f6b7205bec9911c	0.003350268574921723
71	0x3f7a2beb9a3d9cda	0.006389541933322829
72	0x3f831d121ce0e301	0.009332791811276222
73	0x3f6b5da7aa25c741	0.0033405565929393315
74	0x3f6e345e9030db68	0.0036870810449970877
75	0x3f432c8f3cd320d3	0.0005851458933188398
76	0x3f089542bf82bbd9	4.688844632149526e-05
77	0x3f5abe269404f2bc	0.0016322495212783136
78	0xbf8037e1a221a4b8	-0.007919085274084345
79	0x3f6876475422c0d5	0.0029860871446417505
80	0x3f78277413ca0bf9	0.005897000719985884
81	0x3f5ffbe214a1e9c3	0.0019521434610668554
82	0x3f7841c0ba5add6b	0.005922081798125016
83	0x3f6754d1b1f791e6	0.0028480620965061097
84	0xbf57eb90de49988c	-0.0014599718789667674
85	0xbf617b805ad656df	-0.0021340853624661617
86	0x3f71e24b32057c05	0.0043662011451877135
87	0x3f740faf4c3ebf91	0.00489777065006071
88	0xbf75409670d9b887	-0.00518854871698527
89	0x3f1e48e012f20da2	0.00011552684439846428
90	0xbf6c9857efeffb7c	-0.003490611793949437
91	0xbf6811233d86db90	-0.002937859371935976
92	0xbf79e5529188eecd	-0.006322214635072943
93	0xbf7ab3e90c709c98	-0.006519232126300477
94	0xbf8e1304e372951d	-0.014684713545941858
95	0xbf8fc9e29458b40b	-0.015521783973861522
96	0x3f6bcd6782f8d41d	0.0033938428603286345
97	0x3f985570bb89e334	0.023763429113816417
98	0x3f997678f77121f0	0.024865999319702625
99	0x3fa37724acb0d0ab	0.038018365936666264
100	0x3f9514f1a1fce900	0.020587707054098736
101	0x3f7e5d04de1479a7	0.007412928594276036
102	0x3f90a7e2614d6bb5	0.01626542776953573
103	0x3f94e6f2a745de21	0.020412246188668107
104	0x3f7bf71ee3aa1d86	0.006827469502815991
105	0x3f563da084febc5a	0.001357466466270349
106	0x3f53336ff2814456	0.001171931575317827
107	0x3f82648695f96c47	0.008980800105908083
108	0x3f77e819e4206e24	0.005836583268343829
109	0x3f70b36fddd35168	0.004077374437845151
110	0x3f71ea56a6d2020f	0.004373873217560233
111	0xbf830232e3709979	-0.009281537595666066
112	0x3f55eae4bdd831b7	0.0013377412609570768
113	0x3f55d231b8337d0a	0.0013318524877872794
114	0xbf482e602ec5a677	-0.0007379502908808196
115	0xbf320eff6ce27a14	-0.00027555213899602246
116	0x3f50bd90bd0846de	0.0010217584095965552
117	0xbf709d8a8a9b60fa	-0.0040564929747335336
118	0xbf6726dc2413b6ea	-0.0028261470439393437
119	0xbf50ab32a91455bd	-0.0010173792582624929
120	0xbf7ce51958346559	-0.007054423334261394
121	0xbf850b3e06b5dc75	-0.01027534921625615
122	0xbf714b7153601b71	-0.00422233836980622
123	0x3f5ba19c047db209	0.0016864799126451466
124	0x3f7f672fdceb63b9	0.007666766133035568
125	0x3f8b7c866410a25f	0.01342110627054288
126	0x3f8418346a882243	0.009811791897861194
127	0x3fa2684e0ad9dfa4	0.0359520328756269
128	0x3fa1d5e44d498e36	0.0348349899620896
129	0xbf589ab874bd855b	-0.0015017319992341658
130	0x3f80b938c847b813	0.008165782558503342
131	0x3f97ff90ea6c62c6	0.023435844715183028
132	0x3f7b6511041f8d85	0.006688181370893336
133	0x3f99d29b9c8d13df	0.025217467718238736
134	0x3f8c272f76f2452d	0.013746615235762672
135	0x3f9354e870b6c3ad	0.0188785857005233
136	0x3f87a7608101cddb	0.011549714982016226
137	0x3f4a12e276dda5c6	0.0007957082541284958
138	0xbf32dc3accff3fb7	-0.00028778491559666323
139	0x3f75f745ede91c4e	0.005362771188237648
140	0xbf495907049ef555	-0.0007735523479294552
141	0x3f6e6174c4cc4d6a	0.0037085800780773297
142	0xbf760cb4b1bafbe2	-0.005383210980368399
143	0xbf5fc8f9eda98f7e	-0.001940006323501969
144	0x3f78d43d6c755be7	0.006061782776064262
145	0x3f610a357e940dd0	0.0020800633252535464
146	0xbf5b6f26ff1a522d	-0.0016744499993467485
147	0xbf80ef17fc7c0914	-0.008268535034862391
148	0xbf98a80ee18628be	-0.024078590884109678
149	0xbf98846089765e8a	-0.023942478551900716
150	0xbf80f1a2ccd6ad93	-0.008273383976151993
151	0xbf9630ccdf309883	-0.021670533296991323
152	0xbf9b812d7a308fd8	-0.026859961111895675
153	0xbf72457c295fb763	-0.00446079731589841
154	0x3f4b2564b69289a8	0.0008284322513143942
155	0xbf573c58e2c49b69	-0.0014181964898598248
156	0xbf7726d7d7715363	-0.005652278071541203
157	0xbf7623ef706147bc	-0.005405364330799797
158	0x3f89d92377667338	0.012621190148644254
159	0x3f879fb212e51c89	0.011535063935879346
160	0x3f73cf505c71de01	0.004836381826968773
161	0x3f94580874143c95	0.019867069325354498
162	0x3fa050b59577f432	0.03186576318328384
163	0x3f900be417cdb950	0.015670360520226467
164	0x3f8da73974532616	0.014479111540270966
165	0x3f60c35c9dd2be9c	0.002046280757518405
166	0x3f2e4053aa4e28c9	0.00023079892448791262
167	0xbf68ffd04bec94fe	-0.003051668957953723
168	0xbf8a11f70933dfaa	-0.012729577987997082
169	0xbf650036c99b8cea	-0.0025635786122265485
170	0x3f788bc689d01148	0.005992675342899219
171	0x3f75adf73a1e6c9d	0.005292859774182504
172	0xbf6b976b8a4e10c0	-0.0033681011577205433
173	0x3f5a59a76be2dc0d	0.0016082892393976006
174	0xbf839f85d8f4eeca	-0.009581609424109589
175	0xbf9d8547908e168d	-0.02882873363298315
176	0xbf7ce98b5c278d63	-0.007058662772098631
177	0xbf8bcff20af7d33d	-0.013580218276709405
178	0xbf74f50a2f8239a6	-0.005116500651764977
179	0x3f849f5e4fa27c7a	0.01006959610486845
180	0x3f977a8ed0544a18	0.022928458657654444
181	0x3f806f7cd4683ee8	0.00802514575209963
182	0x3f62d3d8ee6fb2fe	0.0022982823315856873
183	0x3f7d2983765a5ea9	0.007119668507264678
184	0x3f82267b9cdb1a15	0.008862462734566848
185	0xbf96068b4b789953	-0.021509338837995284
186	0x3f85e4717d1eb59e	0.010689627295358769
187	0x3f8d9031e77b1d54	0.01443518626855559
188	0x3f8ebf8194a704ec	0.015013706540118986
189	0x3f739f7307410e8e	0.0047907346052543775
190	0x3f92541bfac7e533	0.017898976499030893
191	0x3f8ab756ecb569b8	0.013045004938864277
192	0x3f8d965cda8821b6	0.014446950358448212
193	0x3f72e47b26a93f01	0.004612427767440642
194	0xbf7ebdae5f7a2a25	-0.007505112785688915
195	0xbf65b0a8b3d2c3d0	-0.0026477141351155323
196	0x3f5ab5300c2bb6c7	0.001630112573077923
197	0xbf39ea376cbaec64	-0.0003954301180148555
198	0x3f259d85581e48da	0.00016491177308048424
199	0xbf71861d698a6393	-0.004278292552634694
200	0xbf7a3a364c98b8aa	-0.00640317164065444
201	0xbf4f9a0470f75396	-0.0009644052205951433
202	0xbf81325528b2e883	-0.008396783165484095
203	0xbf85b6bed837c95f	-0.010602465604254872
204	0xbf937bcae3e5d701	-0.019026918563631593
205	0xbf7c4a56a3a112c7	-0.006906832155497872
206	0x3f93b50e7892b060	0.019245363339607358
207	0x3f50a06f6f3672bb	0.0010148132540514349
208	0x3f92fb00c2c789c7	0.018535625351327824
209	0x3f50c9c8b5122e2c	0.0010246715576468597
210	0xbf707b67617a5fc0	-0.004023937064310645
211	0x3f9c79c82e9cbcab	0.02780831131456966
212	0x3fa173171b8cfedc	0.03408119403183971
213	0x3f77a375b8f3c86d	0.005771121838948995
214	0x3f91b02b08c3cc61	0.017273590478862014
215	0x3f8976d129aabb51	0.012433656772683628
216	0x3f96de475349e1a6	0.022332300623448063
217	0xbf5708d41288f3c1	-0.0014059134501984568
218	0x3f82edc0bd986932	0.009242540155402244
219	0x3f5e624070aff9ee	0.0018544797228511284
220	0x3f8731d709817510	0.011325530984488213
221	0x3f8905249d902456	0.012216840799753974
222	0x3f491dbc5c49ec36	0.000766484234716264
223	0x3f6f5ef9f5936cb4	0.0038294679658129275
224	0x3f64dbb0dfe36bb9	0.0025461630421949846
225	0x3f71aeb1ca697ce2	0.00431699227792068
226	0xbf736d2a12b1fd4c	-0.004742779109732819
227	0xbf79c3946880a1bf	-0.006290034980374447
228	0xbf93ee3212e9cb71	-0.019463331608175097
229	0xbf8d58283b5404a9	-0.014328302679589138
230	0xbf976b6d29e8053e	-0.02287073677326145
231	0xbf955436cba0994e	-0.020829063585688083
232	0xbf8fd5c3a1ee3ce0	-0.015544441584806667
233	0x3f704b9014678c9a	0.003978312312457844
234	0x3f7b355f9c556316	0.006642697791300353
235	0xbf657904d87b8030	-0.0026211828843401216
236	0x3fa36718ee052ca0	0.037895945601655656
237	0x3f9463b31b7fb9fa	0.019911573937799056
238	0x3f8773d01b377835	0.011451364355647179
239	0x3f85b1488fa6cfa4	0.010592047580622772
240	0x3f96bb054cafb18e	0.022197802358208167
241	0x3f9d2ba47e378b3f	0.02848679561965217
242	0x3f9e5fd08a40c4e4	0.02966237872914669
243	0x3f9d72dcf5d6f0e3	0.028758480553492737
244	0x3f878651db78c7b2	0.011486663351295199
245	0x3f8d394161557d20	0.014269362242599615
246	0x3f91ee0e2f63cae9	0.01750967182392574
247	0x3f91ad8444594bd8	0.017263476058655275
248	0x3f97f3640adfe85f	0.023389399684653586
249	0x3f80f5e44c246f81	0.00828150136344852
250	0xbf308911b33c3188	-0.00025231058246857245
251	0x3ebb943761a2369e	1.6438347132693064e-06
252	0xbf738add74a8d892	-0.004771103917439972
253	0xbf4f4025d216da97	-0.0009536919280240416
254	0x3f61e2993209a8d1	0.002183245859034157
255	0xbf75f2f02736cf4f	-0.005358636949882214

b1 f8 [64]
0	0x3f7bb4ec6214d06e	0.0067643388477344035
1	0x3f7bb4ec6214d06e	0.0067643388477344035
2	0x3f7bb4ec6214d06e	0.0067643388477344035
3	0x3f7bb4ec6214d06e	0.0067643388477344035
4	0x3f7bb4ec6214d06e	0.0067643388477344035
5	0x3f7bb4ec6214d06e	0.0067643388477344035
6	0x3f7bb4ec6214d06e	0.0067643388477344035
7	0x3f7bb4ec6214d06e	0.0067643388477344035
8	0x3f7bb4ec6214d06e	0.0067643388477344035
9	0x3f7bb4ec6214d06e	0.0067643388477344035
10	0x3f7bb4ec6214d06e	0.0067643388477344035
11	0x3f7bb4ec6214d06e	0.0067643388477344035
12	0x3f7bb4ec6214d06e	0.0067643388477344035
13	0x3f7bb4ec6214d06e	0.0067643388477344035
14	0x3f7bb4ec6214d06e	0.0067643388477344035
15	0x3f7bb4ec6214d06e	0.0067643388477344035
16	0x3f7bb4ec6214d06e	0.0067643388477344035
17	0x3f7bb4ec6214d06e	0.0067643388477344035
18	0x3f7bb4ec6214d06e	0.0067643388477344035
19	0x3f7bb4ec6214d06e	0.0067643388477344035
20	0x3f7bb4ec6214d06e	0.0067643388477344035
21	0x3f7bb4ec6214d06e	0.0067643388477344035
22	0x3f7bb4ec6214d06e	0.0067643388477344035
23	0x3f7bb4ec6214d06e	0.0067643388477344035
24	0x3f7bb4ec6214d06e	0.0067643388477344035
25	0x3f7bb4ec6214d06e	0.0067643388477344035
26	0x3f7bb4ec6214d06e	0.0067643388477344035
27	0x3f7bb4ec6214d06e	0.0067643388477344035
28	0x3f7bb4ec6214d06e	0.0067643388477344035
29	0x3f7bb4ec6214d06e	0.0067643388477344035
30	0x3f7bb4ec6214d06e	0.0067643388477344035
31	0x3f7bb4ec6214d06e	0.0067643388477344035
32	0x3f7bb4ec6214d06e	0.0067643388477344035
33	0x3f7bb4ec6214d06e	0.0067643388477344035
34	0x3f7bb4ec6214d06e	0.0067643388477344035
35	0x3f7bb4ec6214d06e	0.0067643388477344035
36	0x3f7bb4ec6214d06e	0.0067643388477344035
37	0x3f7bb4ec6214d06e	0.0067643388477344035
38	0x3f7bb4ec6214d06e	0.0067643388477344035
39	0x3f7bb4ec6214d06e	0.0067643388477344035
40	0x3f7bb4ec6214d06e	0.0067643388477344035
41	0x3f7bb4ec6214d06e	0.0067643388477344035
42	0x3f7bb4ec6214d06e	0.0067643388477344035
43	0x3f7bb4ec6214d06e	0.0067643388477344035
44	0x3f7bb4ec6214d06e	0.0067643388477344035
45	0x3f7bb4ec6214d06e	0.0067643388477344035
46	0x3f7bb4ec6214d06e	0.0067643388477344035
47	0x3f7bb4ec6214d06e	0.0067643388477344035
48	0x3f7bb4ec6214d06e	0.0067643388477344035
49	0x3f7bb4ec6214d06e	0.0067643388477344035
50	0x3f7bb4ec6214d06e	0.0067643388477344035
51	0x3f7bb4ec6214d06e	0.0067643388477344035
52	0x3f7bb4ec6214d06e	0.0067643388477344035
53	0x3f7bb4ec6214d06e	0.0067643388477344035
54	0x3f7bb4ec6214d06e	0.0067643388477344035
55	0x3f7bb4ec6214d06e	0.0067643388477344035
56	0x3f7bb4ec6214d06e	0.0067643388477344035
57	0x3f7bb4ec6214d06e	0.0067643388477344035
58	0x3f7bb4ec6214d06e	0.0067643388477344035
59	0x3f7bb4ec6214d06e	0.0067643388477344035
60	0x3f7bb4ec6214d06e	0.0067643388477344035
61	0x3f7bb4ec6214d06e	0.0067643388477344035
62	0x3f7bb4ec6214d06e	0.0067643388477344035
63	0x3f7bb4ec6214d06e	0.0067643388477344035

W2 f8 [10, 64]
0	0x3fd5200df08f93b9	0.33008144848127646
1	0xbfd3bff14bb8c300	-0.3085902442426658
2	0xbfd2a9d9b5e72312	-0.29161684764817253
3	0x3fde14224d33d171	0.46997888125704096
4	0x3fc020d522763d2e	0.12600197012623354
5	0x3fc3237a438c3ec9	0.14952019022211108
6	0x3fd642805d0a1683	0.34780892454032414
7	0x3fde40d72778877d	0.4727075467545701
8	0x3fde2be6406bd75b	0.47142940798891225
9	0xbfbf285e2acf4647	-0.121709714366511
10	0xbfd62f2efdc48c52	-0.34662985593803797
11	0xbfd55034f509fe69	-0.33302043847650126
12	0xbfb166e10109c280	-0.06797605777115656
13	0xbfd93adf4c1c1a13	-0.39421827728838926
14	0x3fce1f01b4b92fea	0.23532124828704976
15	0xbfc5bf8e00a4516d	-0.16990828543988404
16	0xbfc57184f438ac90	-0.16752683567878934
17	0xbfc844721ebbc764	-0.18958879948291518
18	0xbfe0c0153db1ed28	-0.5234476284962613
19	0xbfd08d34c67cbe0d	-0.2586185396530432
20	0xbfd5a72defebdfac	-0.3383288233740085
21	0x3fd2694fb91a6f37	0.28767769886484323
22	0xbfdb43eacc804021	-0.4260203358726376
23	0xbfd99c88098bb01f	-0.40017891819184287
24	0xbfda7007e64f3c14	-0.41308782092249996
25	0xbfd5083646a02776	-0.3286262216284891
26	0x3fcc880365ed345d	0.22290079571613122
27	0x3fd772d8222988ac	0.36638453804165283
28	0xbfce1ae385431dd9	-0.2351955795950136
29	0xbfdaa70322ff6725	-0.4164436189436052
30	0xbfdef6d1d4a03ff2	-0.48381467594390337
31	0x3fddeda6f378fbb7	0.46763013626690103
32	0x3fd31d9ad38be26a	0.2986819330103915
33	0x3fc25dd58c6212c0	0.14348859171527373
34	0x3fd380f0c4b4752f	0.30474490365471046
35	0x3fda0d4c6fac5bce	0.4070616808471045
36	0x3fd20aa7c2d7ae84	0.2819003489264349
37	0xbfd2a8a39fc8f8d1	-0.2915429172898146
38	0x3fe43ac88c1fecdd	0.6321757065592483
39	0xbfc9b458350524fd	-0.20081617916938646
40	0x3fcf05f04149e502	0.2423687285225143
41	0xbfbe70f967475544	-0.11891134997798242
42	0xbfda790364bc30e9	-0.41363606297887984
43	0xbfcee2fcb95b5b00	-0.24130209971072958
44	0xbfca5016be73abb3	-0.20556911754041848
45	0xbfdac3c287f44c94	-0.41819823529039835
46	0x3fe7332526876291	0.7249933006779249
47	0x3fc598035b60d471	0.16870157205417827
48	0xbfce07b045cae4d5	-0.23460963638152657
49	0xbfe1c61231efb56a	-0.5554285979575699
50	0xbfd7ebb273c1f89f	-0.3737608080335892
51	0xbfd3526c25981bdc	-0.3019056670313469
52	0x3fbfb86e52a81b50	0.12390794294343022
53	0x3fd2f2269f15184d	0.2960297158755381
54	0xbfd6ac99b163185c	-0.3542846901222043
55	0xbfcf94e9aac6085e	-0.24673195684960353
56	0x3fc6bcaef98c1d5f	0.1776331633084096
57	0xbfc4d8378535f502	-0.16284841541702383
58	0x3fe06a19b251b2fe	0.5129517061992315
59	0x3fd52782a896e6b9	0.3305365225202013
60	0xbfa3ed3063afc065	-0.03891898362042027
61	0xbfc8c959b100e6e7	-0.19364472525358353
62	0x3fe0ae4a24a1f188	0.5212755885582263
63	0xbfc26e59dcc5626a	-0.1439926460250434
64	0x3fcdebdc4e6733d4	0.23376039341238075
65	0x3fd9eebe2ddbe000	0.40519670942694574
66	0x3fdae6300d314dee	0.42029954231585875
67	0xbfd6f9f4519665c7	-0.3590060040238225
68	0xbfe035d1c1477e98	-0.5065697455392693
69	0xbfdec2ce491fb870	-0.4806400026417412
70	0x3fd55c471a2a7df6	0.3337571864630883
71	0xbfd396d2f77ad716	-0.3060805718226772
72	0xbfd1cb0aa3fce602	-0.27801767363015994
73	0xbfcd50b507d62011	-0.22902548678052928
74	0x3fc124b2446445d6	0.13393238391340273
75	0x3fd381f102e82e09	0.3048059967411239
76	0xbfd085e4ae635bba	-0.25817219762887655
77	0x3fd66a81a8dde217	0.3502506398286029
78	0x3fd8b665e726d137	0.3861326939907203
79	0x3fdb17356b96d491	0.42329154497867544
80	0x3fe06d2c0c2ea10b	0.5133266675884739
81	0x3fdfdf2aee4491b7	0.4979960753282983
82	0x3fc09423f7b02a41	0.1295208892264146
83	0x3fccdca4d8ab89a0	0.22548351840584946
84	0x3fd5cc8e33c23476	0.34061007551719713
85	0xbfe050f43e226f3f	-0.5098820890011452
86	0xbfdd97a20b4786bd	-0.462379942908324
87	0x3fd8b9b1db632e98	0.38633390831521686
88	0x3fcf00e38b76588e	0.24221462545091693
89	0x3fdcaac99f439497	0.44792404702304495
90	0x3fc1465782626ee5	0.13495916239195718
91	0xbfc5c313438bcd23	-0.17001572416447983
92	0x3f0309b87a832a1c	3.631204828165679e-05
93	0x3fc3d7a7d09222ee	0.15501878437159838
94	0xbfd63900c01b76b3	-0.34722918282009657
95	0x3fca862f345502f7	0.207219982674381
96	0xbfd191bb73cd56d6	-0.27451978977965774
97	0xbfe15a8e2e211c3e	-0.542304124924051
98	0xbfd0005aa57f06bf	-0.25002161180246313
99	0xbfd10363ef835841	-0.2658319319720058
100	0xbfc6600c38643653	-0.17480614427079164
101	0x3fd3453662c87e20	0.3010993923835219
102	0xbfc0d05a619764e0	-0.1313584305305886
103	0xbfcfe6f9c60e7ccc	-0.24923631830913562
104	0xbfdd2eeda4d784dc	-0.4559892759117028
105	0x3fca0c66837fba5f	0.20350343151899872
106	0x3fd7545eec9f2f71	0.36452458484267597
107	0xbfcc578598c85ac7	-0.22142095527734382
108	0x3fd6195d8ec0b7d4	0.3452981847830163
109	0x3fbe584b04b22c16	0.11853474487922741
110	0x3fdd34fe5879a01b	0.45635946884294903
111	0x3fcf6bcfe959bd4c	0.24547766584462705
112	0x3fd74baaf043e0e0	0.3639933916415554
113	0xbfe364cdd118483c	-0.6060551723369438
114	0x3fd4543faad557ba	0.31764213259645724
115	0xbfd3d7c47a1c7ef9	-0.3100444023602758
116	0xbfd89e86d2c0b991	-0.38467569905596927
117	0xbfcbd1aa2775c2f4	-0.21733595778234582
118	0x3fdb581a3be5a712	0.4272523484165599
119	0x3fd64d4c34186144	0.3484678753607293
120	0x3fba2639dc4c0d1a	0.10214578274103694
121	0xbfd087602cd50a36	-0.2582626760305716
122	0xbfd0d551bf924261	-0.2630199786008572
123	0xbfd11ca2bd0906e1	-0.2673727842376206
124	0x3fd2407e2ad6d45c	0.2851863306380602
125	0xbfc2f9713c8243ef	-0.1482373757794728
126	0xbfcd404f87caee3f	-0.228525105767277
127	0xbfd0f9cf47d0b426	-0.2652471734352865
128	0xbfdf326c255cb2c4	-0.4874525418152127
129	0xbfcb90c12670f15b	-0.21535505654345397
130	0x3fcbe5e86f34c9db	0.2179537337302254
131	0x3fe179ca72b9b51f	0.546117042611204
132	0xbfe1f15032d33ee4	-0.5607071869544282
133	0x3fd2528e789773a7	0.2862888505604197
134	0xbfdbe836c320d474	-0.436048212580608
135	0x3fd80bf077384f22	0.3757287182099721
136	0x3fe00bdc609854c0	0.5014478575345933
137	0xbfad2163a9918355	-0.05689536518980868
138	0x3fd4fadda89c10ef	0.3278116365984393
139	0x3fcbbf54041925c1	0.2167763729105854
140	0xbfca1d35d738eb58	-0.2040164280786836
141	0xbfdab5199b67773b	-0.4173034684771328
142	0xbfbad27de19300ac	-0.10477434880431485
143	0xbfc07a55de4baa53	-0.12873338083530203
144	0xbfc305699d6e40ac	-0.1486026781753983
145	0xbfb5728702ebb2da	-0.08377879926019763
146	0xbfd26c6cbdb89f14	-0.2878677227731583
147	0x3fe1757c7235700b	0.5455915671004744
148	0x3fe0e34e3779e69e	0.5277472575682685
149	0xbfd6c413a853cd89	-0.35571757734506854
150	0x3f797e298da06ec6	0.006223833386709015
151	0xbfd3aae5f009826c	-0.3073057979691274
152	0x3f8ee2e688cd519f	0.015081215906015908
153	0xbfd3c3b3a3f8d261	-0.30881968510519725
154	0x3fc338eb914fad56	0.15017456622386288
155	0xbfc7e21dbc97e588	-0.1865880175462673
156	0x3fd5659f14a45569	0.3343274785596209
157	0x3fc643dcd7142a61	0.17394600393193385
158	0xbfd2107caf459439	-0.28225628963838606
159	0xbfde6a47897babe2	-0.47523678232272293
160	0x3fd10fc97fa621e7	0.26658856836050265
161	0x3fd2c3f5cfd8e878	0.29321046159350983
162	0xbfe7d9f488b7669f	-0.7453558607332588
163	0x3fe3b47d29763f9f	0.6157823381235977
164	0xbfda70b15f589373	-0.4131282263863831
165	0xbfc9c2316034eddc	-0.2012387962111991
166	0xbfc6cadeabd665f2	-0.1780660952615985
167	0xbfd45d43928453f2	-0.31819238003055184
168	0xbfd76ac097f8d4f4	-0.36589064446464126
169	0x3fd1305fbacfda22	0.268577511247175
170	0x3fd22382548bf11d	0.28341730362423495
171	0xbfb617b96dec1119	-0.0862995046009626
172	0xbfd2eb5f8aa0df5a	-0.29561604059153057
173	0x3fa5d1bfd0aeff27	0.04261588499457352
174	0xbfd7a450f862efa2	-0.36940407043925394
175	0x3fa53485a23146df	0.04141633610619321
176	0x3fd475bedc4c73c1	0.31968661798037706
177	0x3fdcd93572d89752	0.4507573720496697
178	0x3fce8bca5b4f9dbe	0.2386410661558624
179	0x3fcea964dfadc1a7	0.2395444957906083
180	0x3fe1b0dd96f839ba	0.5528400372148135
181	0xbfa50592a36a0314	-0.041058142135631
182	0x3fe57f97ecb34f35	0.6718253729872915
183	0x3fd8553b949370c1	0.38020219334954325
184	0x3fd12d91306704b0	0.26840619780348174
185	0xbfd286395b9ec1f4	-0.28944238612441997
186	0xbfd15d90850430b7	-0.27133572568778724
187	0x3fe3c670da9d0b45	0.6179737348360069
188	0x3fd042334c3db403	0.2540405506650247
189	0xbfd5c187da5bffa0	-0.3399371750274387
190	0x3fd488cc55209b35	0.3208494979211765
191	0xbfbfdb7daf5988d7	-0.12444291621207824
192	0x3fd744cac0f3ff10	0.36357373087956635
193	0x3fdff7801bdbf1f7	0.4994812271177404
194	0xbfd0c5d46d6beff8	-0.26207457242685406
195	0x3fe39081e0fa3ce9	0.6113900560466422
196	0x3fd832b75de3d964	0.3780954758543855
197	0x3fd781572513a051	0.3672693121029669
198	0x3f66f098753d033e	0.002800271768052558
199	0xbfd0bb69ed2a4303	-0.26143882904675325
200	0xbfc18f44169fb2ac	-0.13718463043860163
201	0xbfc18daadf4c35c0	-0.1371358480759408
202	0xbfcf2de1e1b53b08	-0.2435877182092201
203	0x3fdee778acd1b67f	0.482877892273656
204	0xbfc5e46523016aa1	-0.17103256425146632
205	0x3fd20b6ae062a287	0.28194686806322306
206	0x3fc4960a71e5af70	0.1608288818491661
207	0xbfcecf51e77ea4ce	-0.24070190242244965
208	0xbfc8ac7829fc2057	-0.192763348102974
209	0xbfcf1de07be20973	-0.24309927033398146
210	0x3fbadd17df63428c	0.10493611530115227
211	0x3fc1323377115aa8	0.13434451402527725
212	0x3fe2fc337ee3751c	0.593286273793328
213	0x3fd29e11f7f122f8	0.2908978387172705
214	0x3fcba9592bc83f09	0.21610560071757615
215	0xbfdd1d7ff1612954	-0.45492552349300763
216	0x3fb3b9416a32e2d1	0.07704552500480168
217	0xbfc7fcff836cee28	-0.18740838925610714
218	0xbfe30d251108b4f3	-0.5953545887656716
219	0x3fd8a78054688236	0.3852234672831715
220	0x3fd76796e7d188b1	0.36569759977841004
221	0xbfd472bcb205bdba	-0.31950299630167545
222	0x3fd7a3eb51a81a9f	0.36937983488352616
223	0xbfd4764e81f1f79c	-0.3197208661075537
224	0xbfbec20856188e37	-0.12014820196105168
225	0xbfe4dbcdd8130c90	-0.6518315525248841
226	0xbfe59829bf09308d	-0.6748245936555733
227	0xbfd08c0afe3490a3	-0.2585475428079553
228	0xbfc80b02dbbe52a2	-0.18783603410397115
229	0xbfd419267f3d30ec	-0.31403505731283476
230	0xbfb769212c8ba913	-0.09144790017640884
231	0xbfbb5b0bb7c3697b	-0.10685799824151403
232	0x3fd00fef31ffb4dc	0.2509725559492162
233	0x3fccd3463281a664	0.22519757715353983
234	0x3fe0698edd15a64d	0.5128855054910645
235	0xbfce49d3ae4751a0	-0.23662801751801243
236	0x3fdf1b19f992ec11	0.48602914211704823
237	0xbfd7241bc1d7c462	-0.36157888345684885
238	0xbfc555a42a7d5ad9	-0.16667606424990458
239	0x3fae65277847fd52	0.05936549514080504
240	0x3fd05a996d0d526f	0.25552974366772835
241	0x3fdaa3c55c5aa2fe	0.4162457849402442
242	0xbfd7ca3e353cfd18	-0.37171893309637616
243	0xbfb1fb42e1d6ebec	-0.07024019254360753
244	0xbfe04fdae27af833	-0.5097479270405131
245	0x3fe1b80d879b9780	0.5537173889722311
246	0xbfd26921a4cbc56c	-0.2876667126975778
247	0x3fdb0cd4fa988fd2	0.4226581999994298
248	0x3fc8fab00775df0c	0.19515037884024655
249	0x3fc473d9baeb86b2	0.15978547694162654
250	0xbfd5e07c715f905c	-0.341826544490919
251	0xbfc81253c3886c1d	-0.1880593018293845
252	0x3fd669e8a3f71fa4	0.35021415722121163
253	0x3fdec916e5f51898	0.4810235257795141
254	0xbfde9efcd46b3d8c	-0.4784538339999578
255	0xbfad682d5def440f	-0.05743543407118789

b2 f8 [10]
0	0x3c4f589b9989121a	3.3985536025736215e-18
1	0x3c4f589b9989121a	3.3985536025736215e-18
2	0x3c4f589b9989121a	3.3985536025736215e-18
3	0x3c4f589b9989121a	3.3985536025736215e-18
4	0x3c4f589b9989121a	3.3985536025736215e-18
5	0x3c4f589b9989121a	3.3985536025736215e-18
6	0x3c4f589b9989121a	3.3985536025736215e-18
7	0x3c4f589b9989121a	3.3985536025736215e-18
8	0x3c4f589b9989121a	3.3985536025736215e-18
9	0x3c4f589b9989121a	3.3985536025736215e-18
